…
I1023 19:24:09.172509    21 upgrade_proto.cpp:53] Attempting to upgrade input file specified using deprecated V1LayerParameter: n3-net.prototxt
I1023 19:24:09.172552    21 upgrade_proto.cpp:61] Successfully upgraded file specified using deprecated V1LayerParameter
I1023 19:24:09.623649    21 net.cpp:53] Initializing net from parameters: 
name: "CiresanN3"
state {
  phase: TEST
  level: 0
}
layer {
  name: "data"
  type: "MemoryData"
  top: "data"
  top: "label"
  memory_data_param {
    batch_size: 100
    channels: 1
    height: 65
    width: 65
  }
}
layer {
  name: "conv1"
  type: "Convolution"
  bottom: "data"
  top: "conv1"
  param {
    lr_mult: 1
    decay_mult: 1
  }
  param {
    lr_mult: 2
    decay_mult: 1
  }
  convolution_param {
    num_output: 48
    pad: 0
    kernel_size: 5
    stride: 1
    weight_filler {
      type: "gaussian"
      std: 0.0001
    }
    bias_filler {
      type: "constant"
    }
  }
}
layer {
  name: "relu1"
  type: "ReLU"
  bottom: "conv1"
  top: "relu1"
}
layer {
  name: "pool1"
  type: "Pooling"
  bottom: "relu1"
  top: "pool1"
  pooling_param {
    pool: MAX
    kernel_size: 2
    stride: 1
  }
}
layer {
  name: "conv2"
  type: "Convolution"
  bottom: "pool1"
  top: "conv2"
  param {
    lr_mult: 1
    decay_mult: 1
  }
  param {
    lr_mult: 2
    decay_mult: 1
  }
  convolution_param {
    num_output: 48
    pad: 0
    kernel_size: 5
    stride: 1
    weight_filler {
      type: "gaussian"
      std: 0.01
    }
    bias_filler {
      type: "constant"
    }
  }
}
layer {
  name: "relu2"
  type: "ReLU"
  bottom: "conv2"
  top: "relu2"
}
layer {
  name: "pool2"
  type: "Pooling"
  bottom: "relu2"
  top: "pool2"
  pooling_param {
    pool: MAX
    kernel_size: 2
    stride: 1
  }
}
layer {
  name: "conv3"
  type: "Convolution"
  bottom: "pool2"
  top: "conv3"
  param {
    lr_mult: 1
    decay_mult: 1
  }
  param {
    lr_mult: 2
    decay_mult: 1
  }
  convolution_param {
    num_output: 48
    pad: 0
    kernel_size: 5
    stride: 1
    weight_filler {
      type: "gaussian"
      std: 0.01
    }
    bias_filler {
      type: "constant"
    }
  }
}
layer {
  name: "relu3"
  type: "ReLU"
  bottom: "conv3"
  top: "relu3"
}
layer {
  name: "pool3"
  type: "Pooling"
  bottom: "relu3"
  top: "pool3"
  pooling_param {
    pool: MAX
    kernel_size: 2
    stride: 1
  }
}
layer {
  name: "ip1"
  type: "InnerProduct"
  bottom: "pool3"
  top: "ip1"
  param {
    lr_mult: 1
    decay_mult: 250
  }
  param {
    lr_mult: 2
    decay_mult: 1
  }
  inner_product_param {
    num_output: 200
    weight_filler {
      type: "gaussian"
      std: 0.01
    }
    bias_filler {
      type: "constant"
    }
  }
}
layer {
  name: "relu4"
  type: "ReLU"
  bottom: "ip1"
  top: "relu4"
}
layer {
  name: "ip2"
  type: "InnerProduct"
  bottom: "relu4"
  top: "ip2"
  param {
    lr_mult: 1
    decay_mult: 250
  }
  param {
    lr_mult: 2
    decay_mult: 1
  }
  inner_product_param {
    num_output: 2
    weight_filler {
      type: "gaussian"
      std: 0.01
    }
    bias_filler {
      type: "constant"
    }
  }
}
layer {
  name: "accuracy"
  type: "Accuracy"
  bottom: "ip2"
  bottom: "label"
  top: "accuracy"
}
layer {
  name: "loss"
  type: "SoftmaxWithLoss"
  bottom: "ip2"
  bottom: "label"
  top: "loss"
}
layer {
  name: "prob"
  type: "Softmax"
  bottom: "ip2"
  top: "prob"
}
I1023 19:24:09.623745    21 layer_factory.hpp:77] Creating layer data
I1023 19:24:09.623757    21 net.cpp:86] Creating Layer data
I1023 19:24:09.623766    21 net.cpp:382] data -> data
I1023 19:24:09.623780    21 net.cpp:382] data -> label
I1023 19:24:09.624327    21 net.cpp:124] Setting up data
I1023 19:24:09.624344    21 net.cpp:131] Top shape: 100 1 65 65 (422500)
I1023 19:24:09.624351    21 net.cpp:131] Top shape: 100 (100)
I1023 19:24:09.624354    21 net.cpp:139] Memory required for data: 1690400
I1023 19:24:09.624359    21 layer_factory.hpp:77] Creating layer label_data_1_split
I1023 19:24:09.624374    21 net.cpp:86] Creating Layer label_data_1_split
I1023 19:24:09.624382    21 net.cpp:408] label_data_1_split <- label
I1023 19:24:09.624392    21 net.cpp:382] label_data_1_split -> label_data_1_split_0
I1023 19:24:09.624404    21 net.cpp:382] label_data_1_split -> label_data_1_split_1
I1023 19:24:09.624415    21 net.cpp:124] Setting up label_data_1_split
I1023 19:24:09.624423    21 net.cpp:131] Top shape: 100 (100)
I1023 19:24:09.624430    21 net.cpp:131] Top shape: 100 (100)
I1023 19:24:09.624435    21 net.cpp:139] Memory required for data: 1691200
I1023 19:24:09.624439    21 layer_factory.hpp:77] Creating layer conv1
I1023 19:24:09.624454    21 net.cpp:86] Creating Layer conv1
I1023 19:24:09.624459    21 net.cpp:408] conv1 <- data
I1023 19:24:09.624466    21 net.cpp:382] conv1 -> conv1
I1023 19:24:09.980484    21 net.cpp:124] Setting up conv1
I1023 19:24:09.980510    21 net.cpp:131] Top shape: 100 48 61 61 (17860800)
I1023 19:24:09.980514    21 net.cpp:139] Memory required for data: 73134400
I1023 19:24:09.980526    21 layer_factory.hpp:77] Creating layer relu1
I1023 19:24:09.980535    21 net.cpp:86] Creating Layer relu1
I1023 19:24:09.980540    21 net.cpp:408] relu1 <- conv1
I1023 19:24:09.980545    21 net.cpp:382] relu1 -> relu1
I1023 19:24:09.980680    21 net.cpp:124] Setting up relu1
I1023 19:24:09.980691    21 net.cpp:131] Top shape: 100 48 61 61 (17860800)
I1023 19:24:09.980693    21 net.cpp:139] Memory required for data: 144577600
I1023 19:24:09.980696    21 layer_factory.hpp:77] Creating layer pool1
I1023 19:24:09.980703    21 net.cpp:86] Creating Layer pool1
I1023 19:24:09.980706    21 net.cpp:408] pool1 <- relu1
I1023 19:24:09.980710    21 net.cpp:382] pool1 -> pool1
I1023 19:24:09.980718    21 net.cpp:124] Setting up pool1
I1023 19:24:09.980722    21 net.cpp:131] Top shape: 100 48 60 60 (17280000)
I1023 19:24:09.980725    21 net.cpp:139] Memory required for data: 213697600
I1023 19:24:09.980726    21 layer_factory.hpp:77] Creating layer conv2
I1023 19:24:09.980736    21 net.cpp:86] Creating Layer conv2
I1023 19:24:09.980741    21 net.cpp:408] conv2 <- pool1
I1023 19:24:09.980746    21 net.cpp:382] conv2 -> conv2
I1023 19:24:09.981806    21 net.cpp:124] Setting up conv2
I1023 19:24:09.981818    21 net.cpp:131] Top shape: 100 48 56 56 (15052800)
I1023 19:24:09.981822    21 net.cpp:139] Memory required for data: 273908800
I1023 19:24:09.981828    21 layer_factory.hpp:77] Creating layer relu2
I1023 19:24:09.981833    21 net.cpp:86] Creating Layer relu2
I1023 19:24:09.981837    21 net.cpp:408] relu2 <- conv2
I1023 19:24:09.981840    21 net.cpp:382] relu2 -> relu2
I1023 19:24:09.981959    21 net.cpp:124] Setting up relu2
I1023 19:24:09.981968    21 net.cpp:131] Top shape: 100 48 56 56 (15052800)
I1023 19:24:09.981971    21 net.cpp:139] Memory required for data: 334120000
I1023 19:24:09.981973    21 layer_factory.hpp:77] Creating layer pool2
I1023 19:24:09.981978    21 net.cpp:86] Creating Layer pool2
I1023 19:24:09.981983    21 net.cpp:408] pool2 <- relu2
I1023 19:24:09.981987    21 net.cpp:382] pool2 -> pool2
I1023 19:24:09.981995    21 net.cpp:124] Setting up pool2
I1023 19:24:09.982000    21 net.cpp:131] Top shape: 100 48 55 55 (14520000)
I1023 19:24:09.982002    21 net.cpp:139] Memory required for data: 392200000
I1023 19:24:09.982004    21 layer_factory.hpp:77] Creating layer conv3
I1023 19:24:09.982012    21 net.cpp:86] Creating Layer conv3
I1023 19:24:09.982017    21 net.cpp:408] conv3 <- pool2
I1023 19:24:09.982020    21 net.cpp:382] conv3 -> conv3
I1023 19:24:09.983057    21 net.cpp:124] Setting up conv3
I1023 19:24:09.983069    21 net.cpp:131] Top shape: 100 48 51 51 (12484800)
I1023 19:24:09.983072    21 net.cpp:139] Memory required for data: 442139200
I1023 19:24:09.983079    21 layer_factory.hpp:77] Creating layer relu3
I1023 19:24:09.983085    21 net.cpp:86] Creating Layer relu3
I1023 19:24:09.983088    21 net.cpp:408] relu3 <- conv3
I1023 19:24:09.983093    21 net.cpp:382] relu3 -> relu3
I1023 19:24:09.983211    21 net.cpp:124] Setting up relu3
I1023 19:24:09.983219    21 net.cpp:131] Top shape: 100 48 51 51 (12484800)
I1023 19:24:09.983222    21 net.cpp:139] Memory required for data: 492078400
I1023 19:24:09.983225    21 layer_factory.hpp:77] Creating layer pool3
I1023 19:24:09.983229    21 net.cpp:86] Creating Layer pool3
I1023 19:24:09.983233    21 net.cpp:408] pool3 <- relu3
I1023 19:24:09.983237    21 net.cpp:382] pool3 -> pool3
I1023 19:24:09.983247    21 net.cpp:124] Setting up pool3
I1023 19:24:09.983252    21 net.cpp:131] Top shape: 100 48 50 50 (12000000)
I1023 19:24:09.983254    21 net.cpp:139] Memory required for data: 540078400
I1023 19:24:09.983256    21 layer_factory.hpp:77] Creating layer ip1
I1023 19:24:09.983263    21 net.cpp:86] Creating Layer ip1
I1023 19:24:09.983264    21 net.cpp:408] ip1 <- pool3
I1023 19:24:09.983268    21 net.cpp:382] ip1 -> ip1
I1023 19:24:10.170883    21 net.cpp:124] Setting up ip1
I1023 19:24:10.170913    21 net.cpp:131] Top shape: 100 200 (20000)
I1023 19:24:10.170917    21 net.cpp:139] Memory required for data: 540158400
I1023 19:24:10.170924    21 layer_factory.hpp:77] Creating layer relu4
I1023 19:24:10.170933    21 net.cpp:86] Creating Layer relu4
I1023 19:24:10.170936    21 net.cpp:408] relu4 <- ip1
I1023 19:24:10.170944    21 net.cpp:382] relu4 -> relu4
I1023 19:24:10.171146    21 net.cpp:124] Setting up relu4
I1023 19:24:10.171156    21 net.cpp:131] Top shape: 100 200 (20000)
I1023 19:24:10.171160    21 net.cpp:139] Memory required for data: 540238400
I1023 19:24:10.171164    21 layer_factory.hpp:77] Creating layer ip2
I1023 19:24:10.171175    21 net.cpp:86] Creating Layer ip2
I1023 19:24:10.171180    21 net.cpp:408] ip2 <- relu4
I1023 19:24:10.171187    21 net.cpp:382] ip2 -> ip2
I1023 19:24:10.171218    21 net.cpp:124] Setting up ip2
I1023 19:24:10.171226    21 net.cpp:131] Top shape: 100 2 (200)
I1023 19:24:10.171231    21 net.cpp:139] Memory required for data: 540239200
I1023 19:24:10.171242    21 layer_factory.hpp:77] Creating layer ip2_ip2_0_split
I1023 19:24:10.171252    21 net.cpp:86] Creating Layer ip2_ip2_0_split
I1023 19:24:10.171258    21 net.cpp:408] ip2_ip2_0_split <- ip2
I1023 19:24:10.171264    21 net.cpp:382] ip2_ip2_0_split -> ip2_ip2_0_split_0
I1023 19:24:10.171275    21 net.cpp:382] ip2_ip2_0_split -> ip2_ip2_0_split_1
I1023 19:24:10.171284    21 net.cpp:382] ip2_ip2_0_split -> ip2_ip2_0_split_2
I1023 19:24:10.171293    21 net.cpp:124] Setting up ip2_ip2_0_split
I1023 19:24:10.171299    21 net.cpp:131] Top shape: 100 2 (200)
I1023 19:24:10.171306    21 net.cpp:131] Top shape: 100 2 (200)
I1023 19:24:10.171313    21 net.cpp:131] Top shape: 100 2 (200)
I1023 19:24:10.171317    21 net.cpp:139] Memory required for data: 540241600
I1023 19:24:10.171321    21 layer_factory.hpp:77] Creating layer accuracy
I1023 19:24:10.171327    21 net.cpp:86] Creating Layer accuracy
I1023 19:24:10.171332    21 net.cpp:408] accuracy <- ip2_ip2_0_split_0
I1023 19:24:10.171339    21 net.cpp:408] accuracy <- label_data_1_split_0
I1023 19:24:10.171346    21 net.cpp:382] accuracy -> accuracy
…
