…
I1024 00:14:11.849925    29 upgrade_proto.cpp:53] Attempting to upgrade input file specified using deprecated V1LayerParameter: n3-net.prototxt
I1024 00:14:11.849967    29 upgrade_proto.cpp:61] Successfully upgraded file specified using deprecated V1LayerParameter
I1024 00:14:12.244336    29 net.cpp:53] Initializing net from parameters: 
name: "CiresanN3"
state {
  phase: TEST
  level: 0
}
layer {
  name: "data"
  type: "MemoryData"
  top: "data"
  top: "label"
  memory_data_param {
    batch_size: 100
    channels: 1
    height: 65
    width: 65
  }
}
layer {
  name: "conv1"
  type: "Convolution"
  bottom: "data"
  top: "conv1"
  param {
    lr_mult: 1
    decay_mult: 1
  }
  param {
    lr_mult: 2
    decay_mult: 1
  }
  convolution_param {
    num_output: 48
    pad: 0
    kernel_size: 5
    stride: 1
    weight_filler {
      type: "gaussian"
      std: 0.0001
    }
    bias_filler {
      type: "constant"
    }
  }
}
layer {
  name: "relu1"
  type: "ReLU"
  bottom: "conv1"
  top: "relu1"
}
layer {
  name: "pool1"
  type: "Pooling"
  bottom: "relu1"
  top: "pool1"
  pooling_param {
    pool: MAX
    kernel_size: 2
    stride: 1
  }
}
layer {
  name: "conv2"
  type: "Convolution"
  bottom: "pool1"
  top: "conv2"
  param {
    lr_mult: 1
    decay_mult: 1
  }
  param {
    lr_mult: 2
    decay_mult: 1
  }
  convolution_param {
    num_output: 48
    pad: 0
    kernel_size: 5
    stride: 1
    weight_filler {
      type: "gaussian"
      std: 0.01
    }
    bias_filler {
      type: "constant"
    }
  }
}
layer {
  name: "relu2"
  type: "ReLU"
  bottom: "conv2"
  top: "relu2"
}
layer {
  name: "pool2"
  type: "Pooling"
  bottom: "relu2"
  top: "pool2"
  pooling_param {
    pool: MAX
    kernel_size: 2
    stride: 1
  }
}
layer {
  name: "conv3"
  type: "Convolution"
  bottom: "pool2"
  top: "conv3"
  param {
    lr_mult: 1
    decay_mult: 1
  }
  param {
    lr_mult: 2
    decay_mult: 1
  }
  convolution_param {
    num_output: 48
    pad: 0
    kernel_size: 5
    stride: 1
    weight_filler {
      type: "gaussian"
      std: 0.01
    }
    bias_filler {
      type: "constant"
    }
  }
}
layer {
  name: "relu3"
  type: "ReLU"
  bottom: "conv3"
  top: "relu3"
}
layer {
  name: "pool3"
  type: "Pooling"
  bottom: "relu3"
  top: "pool3"
  pooling_param {
    pool: MAX
    kernel_size: 2
    stride: 1
  }
}
layer {
  name: "ip1"
  type: "InnerProduct"
  bottom: "pool3"
  top: "ip1"
  param {
    lr_mult: 1
    decay_mult: 250
  }
  param {
    lr_mult: 2
    decay_mult: 1
  }
  inner_product_param {
    num_output: 200
    weight_filler {
      type: "gaussian"
      std: 0.01
    }
    bias_filler {
      type: "constant"
    }
  }
}
layer {
  name: "relu4"
  type: "ReLU"
  bottom: "ip1"
  top: "relu4"
}
layer {
  name: "ip2"
  type: "InnerProduct"
  bottom: "relu4"
  top: "ip2"
  param {
    lr_mult: 1
    decay_mult: 250
  }
  param {
    lr_mult: 2
    decay_mult: 1
  }
  inner_product_param {
    num_output: 2
    weight_filler {
      type: "gaussian"
      std: 0.01
    }
    bias_filler {
      type: "constant"
    }
  }
}
layer {
  name: "accuracy"
  type: "Accuracy"
  bottom: "ip2"
  bottom: "label"
  top: "accuracy"
}
layer {
  name: "loss"
  type: "SoftmaxWithLoss"
  bottom: "ip2"
  bottom: "label"
  top: "loss"
}
layer {
  name: "prob"
  type: "Softmax"
  bottom: "ip2"
  top: "prob"
}
I1024 00:14:12.244434    29 layer_factory.hpp:77] Creating layer data
I1024 00:14:12.244451    29 net.cpp:86] Creating Layer data
I1024 00:14:12.244460    29 net.cpp:382] data -> data
I1024 00:14:12.244474    29 net.cpp:382] data -> label
I1024 00:14:12.244963    29 net.cpp:124] Setting up data
I1024 00:14:12.244972    29 net.cpp:131] Top shape: 100 1 65 65 (422500)
I1024 00:14:12.244976    29 net.cpp:131] Top shape: 100 (100)
I1024 00:14:12.244977    29 net.cpp:139] Memory required for data: 1690400
I1024 00:14:12.244981    29 layer_factory.hpp:77] Creating layer label_data_1_split
I1024 00:14:12.244988    29 net.cpp:86] Creating Layer label_data_1_split
I1024 00:14:12.244992    29 net.cpp:408] label_data_1_split <- label
I1024 00:14:12.244995    29 net.cpp:382] label_data_1_split -> label_data_1_split_0
I1024 00:14:12.245000    29 net.cpp:382] label_data_1_split -> label_data_1_split_1
I1024 00:14:12.245007    29 net.cpp:124] Setting up label_data_1_split
I1024 00:14:12.245009    29 net.cpp:131] Top shape: 100 (100)
I1024 00:14:12.245012    29 net.cpp:131] Top shape: 100 (100)
I1024 00:14:12.245013    29 net.cpp:139] Memory required for data: 1691200
I1024 00:14:12.245015    29 layer_factory.hpp:77] Creating layer conv1
I1024 00:14:12.245023    29 net.cpp:86] Creating Layer conv1
I1024 00:14:12.245025    29 net.cpp:408] conv1 <- data
I1024 00:14:12.245028    29 net.cpp:382] conv1 -> conv1
I1024 00:14:12.451128    29 net.cpp:124] Setting up conv1
I1024 00:14:12.451153    29 net.cpp:131] Top shape: 100 48 61 61 (17860800)
I1024 00:14:12.451155    29 net.cpp:139] Memory required for data: 73134400
I1024 00:14:12.451167    29 layer_factory.hpp:77] Creating layer relu1
I1024 00:14:12.451177    29 net.cpp:86] Creating Layer relu1
I1024 00:14:12.451182    29 net.cpp:408] relu1 <- conv1
I1024 00:14:12.451186    29 net.cpp:382] relu1 -> relu1
I1024 00:14:12.451315    29 net.cpp:124] Setting up relu1
I1024 00:14:12.451323    29 net.cpp:131] Top shape: 100 48 61 61 (17860800)
I1024 00:14:12.451325    29 net.cpp:139] Memory required for data: 144577600
I1024 00:14:12.451328    29 layer_factory.hpp:77] Creating layer pool1
I1024 00:14:12.451333    29 net.cpp:86] Creating Layer pool1
I1024 00:14:12.451337    29 net.cpp:408] pool1 <- relu1
I1024 00:14:12.451341    29 net.cpp:382] pool1 -> pool1
I1024 00:14:12.451349    29 net.cpp:124] Setting up pool1
I1024 00:14:12.451351    29 net.cpp:131] Top shape: 100 48 60 60 (17280000)
I1024 00:14:12.451354    29 net.cpp:139] Memory required for data: 213697600
I1024 00:14:12.451355    29 layer_factory.hpp:77] Creating layer conv2
I1024 00:14:12.451364    29 net.cpp:86] Creating Layer conv2
I1024 00:14:12.451366    29 net.cpp:408] conv2 <- pool1
I1024 00:14:12.451370    29 net.cpp:382] conv2 -> conv2
I1024 00:14:12.452419    29 net.cpp:124] Setting up conv2
I1024 00:14:12.452432    29 net.cpp:131] Top shape: 100 48 56 56 (15052800)
I1024 00:14:12.452437    29 net.cpp:139] Memory required for data: 273908800
I1024 00:14:12.452445    29 layer_factory.hpp:77] Creating layer relu2
I1024 00:14:12.452450    29 net.cpp:86] Creating Layer relu2
I1024 00:14:12.452451    29 net.cpp:408] relu2 <- conv2
I1024 00:14:12.452455    29 net.cpp:382] relu2 -> relu2
I1024 00:14:12.452574    29 net.cpp:124] Setting up relu2
I1024 00:14:12.452584    29 net.cpp:131] Top shape: 100 48 56 56 (15052800)
I1024 00:14:12.452585    29 net.cpp:139] Memory required for data: 334120000
I1024 00:14:12.452589    29 layer_factory.hpp:77] Creating layer pool2
I1024 00:14:12.452592    29 net.cpp:86] Creating Layer pool2
I1024 00:14:12.452594    29 net.cpp:408] pool2 <- relu2
I1024 00:14:12.452597    29 net.cpp:382] pool2 -> pool2
I1024 00:14:12.452603    29 net.cpp:124] Setting up pool2
I1024 00:14:12.452606    29 net.cpp:131] Top shape: 100 48 55 55 (14520000)
I1024 00:14:12.452608    29 net.cpp:139] Memory required for data: 392200000
I1024 00:14:12.452610    29 layer_factory.hpp:77] Creating layer conv3
I1024 00:14:12.452617    29 net.cpp:86] Creating Layer conv3
I1024 00:14:12.452620    29 net.cpp:408] conv3 <- pool2
I1024 00:14:12.452622    29 net.cpp:382] conv3 -> conv3
I1024 00:14:12.453698    29 net.cpp:124] Setting up conv3
I1024 00:14:12.453711    29 net.cpp:131] Top shape: 100 48 51 51 (12484800)
I1024 00:14:12.453713    29 net.cpp:139] Memory required for data: 442139200
I1024 00:14:12.453721    29 layer_factory.hpp:77] Creating layer relu3
I1024 00:14:12.453725    29 net.cpp:86] Creating Layer relu3
I1024 00:14:12.453727    29 net.cpp:408] relu3 <- conv3
I1024 00:14:12.453732    29 net.cpp:382] relu3 -> relu3
I1024 00:14:12.453860    29 net.cpp:124] Setting up relu3
I1024 00:14:12.453869    29 net.cpp:131] Top shape: 100 48 51 51 (12484800)
I1024 00:14:12.453871    29 net.cpp:139] Memory required for data: 492078400
I1024 00:14:12.453873    29 layer_factory.hpp:77] Creating layer pool3
I1024 00:14:12.453877    29 net.cpp:86] Creating Layer pool3
I1024 00:14:12.453879    29 net.cpp:408] pool3 <- relu3
I1024 00:14:12.453884    29 net.cpp:382] pool3 -> pool3
I1024 00:14:12.453891    29 net.cpp:124] Setting up pool3
I1024 00:14:12.453893    29 net.cpp:131] Top shape: 100 48 50 50 (12000000)
I1024 00:14:12.453896    29 net.cpp:139] Memory required for data: 540078400
I1024 00:14:12.453897    29 layer_factory.hpp:77] Creating layer ip1
I1024 00:14:12.453903    29 net.cpp:86] Creating Layer ip1
I1024 00:14:12.453905    29 net.cpp:408] ip1 <- pool3
I1024 00:14:12.453909    29 net.cpp:382] ip1 -> ip1
I1024 00:14:12.646191    29 net.cpp:124] Setting up ip1
I1024 00:14:12.646220    29 net.cpp:131] Top shape: 100 200 (20000)
I1024 00:14:12.646224    29 net.cpp:139] Memory required for data: 540158400
I1024 00:14:12.646231    29 layer_factory.hpp:77] Creating layer relu4
I1024 00:14:12.646245    29 net.cpp:86] Creating Layer relu4
I1024 00:14:12.646250    29 net.cpp:408] relu4 <- ip1
I1024 00:14:12.646255    29 net.cpp:382] relu4 -> relu4
I1024 00:14:12.646461    29 net.cpp:124] Setting up relu4
I1024 00:14:12.646471    29 net.cpp:131] Top shape: 100 200 (20000)
I1024 00:14:12.646472    29 net.cpp:139] Memory required for data: 540238400
I1024 00:14:12.646476    29 layer_factory.hpp:77] Creating layer ip2
I1024 00:14:12.646481    29 net.cpp:86] Creating Layer ip2
I1024 00:14:12.646486    29 net.cpp:408] ip2 <- relu4
I1024 00:14:12.646491    29 net.cpp:382] ip2 -> ip2
I1024 00:14:12.646507    29 net.cpp:124] Setting up ip2
I1024 00:14:12.646512    29 net.cpp:131] Top shape: 100 2 (200)
I1024 00:14:12.646513    29 net.cpp:139] Memory required for data: 540239200
I1024 00:14:12.646522    29 layer_factory.hpp:77] Creating layer ip2_ip2_0_split
I1024 00:14:12.646528    29 net.cpp:86] Creating Layer ip2_ip2_0_split
I1024 00:14:12.646529    29 net.cpp:408] ip2_ip2_0_split <- ip2
I1024 00:14:12.646533    29 net.cpp:382] ip2_ip2_0_split -> ip2_ip2_0_split_0
I1024 00:14:12.646540    29 net.cpp:382] ip2_ip2_0_split -> ip2_ip2_0_split_1
I1024 00:14:12.646545    29 net.cpp:382] ip2_ip2_0_split -> ip2_ip2_0_split_2
I1024 00:14:12.646550    29 net.cpp:124] Setting up ip2_ip2_0_split
I1024 00:14:12.646555    29 net.cpp:131] Top shape: 100 2 (200)
I1024 00:14:12.646558    29 net.cpp:131] Top shape: 100 2 (200)
I1024 00:14:12.646559    29 net.cpp:131] Top shape: 100 2 (200)
I1024 00:14:12.646561    29 net.cpp:139] Memory required for data: 540241600
I1024 00:14:12.646564    29 layer_factory.hpp:77] Creating layer accuracy
I1024 00:14:12.646569    29 net.cpp:86] Creating Layer accuracy
I1024 00:14:12.646570    29 net.cpp:408] accuracy <- ip2_ip2_0_split_0
I1024 00:14:12.646574    29 net.cpp:408] accuracy <- label_data_1_split_0
I1024 00:14:12.646577    29 net.cpp:382] accuracy -> accuracy
…
