…
I1023 10:51:02.064565    11 solver.cpp:87] Creating training net from net file: n3-net.prototxt
I1023 10:51:02.064666    11 upgrade_proto.cpp:53] Attempting to upgrade input file specified using deprecated V1LayerParameter: n3-net.prototxt
I1023 10:51:02.064705    11 upgrade_proto.cpp:61] Successfully upgraded file specified using deprecated V1LayerParameter
I1023 10:51:02.064817    11 net.cpp:53] Initializing net from parameters: 
name: "CiresanN3"
state {
  phase: TRAIN
}
layer {
  name: "data"
  type: "MemoryData"
  top: "data"
  top: "label"
  memory_data_param {
    batch_size: 100
    channels: 1
    height: 65
    width: 65
  }
}
layer {
  name: "conv1"
  type: "Convolution"
  bottom: "data"
  top: "conv1"
  param {
    lr_mult: 1
    decay_mult: 1
  }
  param {
    lr_mult: 2
    decay_mult: 1
  }
  convolution_param {
    num_output: 48
    pad: 0
    kernel_size: 5
    stride: 1
    weight_filler {
      type: "gaussian"
      std: 0.0001
    }
    bias_filler {
      type: "constant"
    }
  }
}
layer {
  name: "relu1"
  type: "ReLU"
  bottom: "conv1"
  top: "relu1"
}
layer {
  name: "pool1"
  type: "Pooling"
  bottom: "relu1"
  top: "pool1"
  pooling_param {
    pool: MAX
    kernel_size: 2
    stride: 1
  }
}
layer {
  name: "conv2"
  type: "Convolution"
  bottom: "pool1"
  top: "conv2"
  param {
    lr_mult: 1
    decay_mult: 1
  }
  param {
    lr_mult: 2
    decay_mult: 1
  }
  convolution_param {
    num_output: 48
    pad: 0
    kernel_size: 5
    stride: 1
    weight_filler {
      type: "gaussian"
      std: 0.01
    }
    bias_filler {
      type: "constant"
    }
  }
}
layer {
  name: "relu2"
  type: "ReLU"
  bottom: "conv2"
  top: "relu2"
}
layer {
  name: "pool2"
  type: "Pooling"
  bottom: "relu2"
  top: "pool2"
  pooling_param {
    pool: MAX
    kernel_size: 2
    stride: 1
  }
}
layer {
  name: "conv3"
  type: "Convolution"
  bottom: "pool2"
  top: "conv3"
  param {
    lr_mult: 1
    decay_mult: 1
  }
  param {
    lr_mult: 2
    decay_mult: 1
  }
  convolution_param {
    num_output: 48
    pad: 0
    kernel_size: 5
    stride: 1
    weight_filler {
      type: "gaussian"
      std: 0.01
    }
    bias_filler {
      type: "constant"
    }
  }
}
layer {
  name: "relu3"
  type: "ReLU"
  bottom: "conv3"
  top: "relu3"
}
layer {
  name: "pool3"
  type: "Pooling"
  bottom: "relu3"
  top: "pool3"
  pooling_param {
    pool: MAX
    kernel_size: 2
    stride: 1
  }
}
layer {
  name: "ip1"
  type: "InnerProduct"
  bottom: "pool3"
  top: "ip1"
  param {
    lr_mult: 1
    decay_mult: 250
  }
  param {
    lr_mult: 2
    decay_mult: 1
  }
  inner_product_param {
    num_output: 200
    weight_filler {
      type: "gaussian"
      std: 0.01
    }
    bias_filler {
      type: "constant"
    }
  }
}
layer {
  name: "relu4"
  type: "ReLU"
  bottom: "ip1"
  top: "relu4"
}
layer {
  name: "ip2"
  type: "InnerProduct"
  bottom: "relu4"
  top: "ip2"
  param {
    lr_mult: 1
    decay_mult: 250
  }
  param {
    lr_mult: 2
    decay_mult: 1
  }
  inner_product_param {
    num_output: 2
    weight_filler {
      type: "gaussian"
      std: 0.01
    }
    bias_filler {
      type: "constant"
    }
  }
}
layer {
  name: "accuracy"
  type: "Accuracy"
  bottom: "ip2"
  bottom: "label"
  top: "accuracy"
}
layer {
  name: "loss"
  type: "SoftmaxWithLoss"
  bottom: "ip2"
  bottom: "label"
  top: "loss"
}
layer {
  name: "prob"
  type: "Softmax"
  bottom: "ip2"
  top: "prob"
}
I1023 10:51:02.064899    11 layer_factory.hpp:77] Creating layer data
I1023 10:51:02.064913    11 net.cpp:86] Creating Layer data
I1023 10:51:02.064924    11 net.cpp:382] data -> data
I1023 10:51:02.064935    11 net.cpp:382] data -> label
I1023 10:51:02.065562    11 net.cpp:124] Setting up data
I1023 10:51:02.065575    11 net.cpp:131] Top shape: 100 1 65 65 (422500)
I1023 10:51:02.065579    11 net.cpp:131] Top shape: 100 (100)
I1023 10:51:02.065582    11 net.cpp:139] Memory required for data: 1690400
I1023 10:51:02.065584    11 layer_factory.hpp:77] Creating layer label_data_1_split
I1023 10:51:02.065594    11 net.cpp:86] Creating Layer label_data_1_split
I1023 10:51:02.065599    11 net.cpp:408] label_data_1_split <- label
I1023 10:51:02.065605    11 net.cpp:382] label_data_1_split -> label_data_1_split_0
I1023 10:51:02.065613    11 net.cpp:382] label_data_1_split -> label_data_1_split_1
I1023 10:51:02.065619    11 net.cpp:124] Setting up label_data_1_split
I1023 10:51:02.065623    11 net.cpp:131] Top shape: 100 (100)
I1023 10:51:02.065625    11 net.cpp:131] Top shape: 100 (100)
I1023 10:51:02.065626    11 net.cpp:139] Memory required for data: 1691200
I1023 10:51:02.065629    11 layer_factory.hpp:77] Creating layer conv1
I1023 10:51:02.065635    11 net.cpp:86] Creating Layer conv1
I1023 10:51:02.065639    11 net.cpp:408] conv1 <- data
I1023 10:51:02.065642    11 net.cpp:382] conv1 -> conv1
I1023 10:51:06.825064    11 net.cpp:124] Setting up conv1
I1023 10:51:06.825088    11 net.cpp:131] Top shape: 100 48 61 61 (17860800)
I1023 10:51:06.825091    11 net.cpp:139] Memory required for data: 73134400
I1023 10:51:06.825103    11 layer_factory.hpp:77] Creating layer relu1
I1023 10:51:06.825111    11 net.cpp:86] Creating Layer relu1
I1023 10:51:06.825114    11 net.cpp:408] relu1 <- conv1
I1023 10:51:06.825119    11 net.cpp:382] relu1 -> relu1
I1023 10:51:06.825276    11 net.cpp:124] Setting up relu1
I1023 10:51:06.825286    11 net.cpp:131] Top shape: 100 48 61 61 (17860800)
I1023 10:51:06.825289    11 net.cpp:139] Memory required for data: 144577600
I1023 10:51:06.825291    11 layer_factory.hpp:77] Creating layer pool1
I1023 10:51:06.825299    11 net.cpp:86] Creating Layer pool1
I1023 10:51:06.825300    11 net.cpp:408] pool1 <- relu1
I1023 10:51:06.825304    11 net.cpp:382] pool1 -> pool1
I1023 10:51:06.825314    11 net.cpp:124] Setting up pool1
I1023 10:51:06.825331    11 net.cpp:131] Top shape: 100 48 60 60 (17280000)
I1023 10:51:06.825335    11 net.cpp:139] Memory required for data: 213697600
I1023 10:51:06.825337    11 layer_factory.hpp:77] Creating layer conv2
I1023 10:51:06.825346    11 net.cpp:86] Creating Layer conv2
I1023 10:51:06.825352    11 net.cpp:408] conv2 <- pool1
I1023 10:51:06.825356    11 net.cpp:382] conv2 -> conv2
I1023 10:51:06.826478    11 net.cpp:124] Setting up conv2
I1023 10:51:06.826489    11 net.cpp:131] Top shape: 100 48 56 56 (15052800)
I1023 10:51:06.826493    11 net.cpp:139] Memory required for data: 273908800
I1023 10:51:06.826499    11 layer_factory.hpp:77] Creating layer relu2
I1023 10:51:06.826503    11 net.cpp:86] Creating Layer relu2
I1023 10:51:06.826506    11 net.cpp:408] relu2 <- conv2
I1023 10:51:06.826511    11 net.cpp:382] relu2 -> relu2
I1023 10:51:06.826652    11 net.cpp:124] Setting up relu2
I1023 10:51:06.826661    11 net.cpp:131] Top shape: 100 48 56 56 (15052800)
I1023 10:51:06.826663    11 net.cpp:139] Memory required for data: 334120000
I1023 10:51:06.826666    11 layer_factory.hpp:77] Creating layer pool2
I1023 10:51:06.826670    11 net.cpp:86] Creating Layer pool2
I1023 10:51:06.826673    11 net.cpp:408] pool2 <- relu2
I1023 10:51:06.826678    11 net.cpp:382] pool2 -> pool2
I1023 10:51:06.826684    11 net.cpp:124] Setting up pool2
I1023 10:51:06.826687    11 net.cpp:131] Top shape: 100 48 55 55 (14520000)
I1023 10:51:06.826690    11 net.cpp:139] Memory required for data: 392200000
I1023 10:51:06.826694    11 layer_factory.hpp:77] Creating layer conv3
I1023 10:51:06.826706    11 net.cpp:86] Creating Layer conv3
I1023 10:51:06.826710    11 net.cpp:408] conv3 <- pool2
I1023 10:51:06.826717    11 net.cpp:382] conv3 -> conv3
I1023 10:51:06.827864    11 net.cpp:124] Setting up conv3
I1023 10:51:06.827877    11 net.cpp:131] Top shape: 100 48 51 51 (12484800)
I1023 10:51:06.827879    11 net.cpp:139] Memory required for data: 442139200
I1023 10:51:06.827885    11 layer_factory.hpp:77] Creating layer relu3
I1023 10:51:06.827891    11 net.cpp:86] Creating Layer relu3
I1023 10:51:06.827894    11 net.cpp:408] relu3 <- conv3
I1023 10:51:06.827899    11 net.cpp:382] relu3 -> relu3
I1023 10:51:06.828039    11 net.cpp:124] Setting up relu3
I1023 10:51:06.828050    11 net.cpp:131] Top shape: 100 48 51 51 (12484800)
I1023 10:51:06.828052    11 net.cpp:139] Memory required for data: 492078400
I1023 10:51:06.828054    11 layer_factory.hpp:77] Creating layer pool3
I1023 10:51:06.828059    11 net.cpp:86] Creating Layer pool3
I1023 10:51:06.828061    11 net.cpp:408] pool3 <- relu3
I1023 10:51:06.828066    11 net.cpp:382] pool3 -> pool3
I1023 10:51:06.828075    11 net.cpp:124] Setting up pool3
I1023 10:51:06.828080    11 net.cpp:131] Top shape: 100 48 50 50 (12000000)
I1023 10:51:06.828083    11 net.cpp:139] Memory required for data: 540078400
I1023 10:51:06.828088    11 layer_factory.hpp:77] Creating layer ip1
I1023 10:51:06.828094    11 net.cpp:86] Creating Layer ip1
I1023 10:51:06.828095    11 net.cpp:408] ip1 <- pool3
I1023 10:51:06.828104    11 net.cpp:382] ip1 -> ip1
I1023 10:51:07.000407    11 net.cpp:124] Setting up ip1
I1023 10:51:07.000432    11 net.cpp:131] Top shape: 100 200 (20000)
I1023 10:51:07.000434    11 net.cpp:139] Memory required for data: 540158400
I1023 10:51:07.000440    11 layer_factory.hpp:77] Creating layer relu4
I1023 10:51:07.000448    11 net.cpp:86] Creating Layer relu4
I1023 10:51:07.000452    11 net.cpp:408] relu4 <- ip1
I1023 10:51:07.000457    11 net.cpp:382] relu4 -> relu4
I1023 10:51:07.000708    11 net.cpp:124] Setting up relu4
I1023 10:51:07.000720    11 net.cpp:131] Top shape: 100 200 (20000)
I1023 10:51:07.000722    11 net.cpp:139] Memory required for data: 540238400
I1023 10:51:07.000725    11 layer_factory.hpp:77] Creating layer ip2
I1023 10:51:07.000731    11 net.cpp:86] Creating Layer ip2
I1023 10:51:07.000741    11 net.cpp:408] ip2 <- relu4
I1023 10:51:07.000746    11 net.cpp:382] ip2 -> ip2
I1023 10:51:07.000766    11 net.cpp:124] Setting up ip2
I1023 10:51:07.000772    11 net.cpp:131] Top shape: 100 2 (200)
I1023 10:51:07.000777    11 net.cpp:139] Memory required for data: 540239200
I1023 10:51:07.000788    11 layer_factory.hpp:77] Creating layer ip2_ip2_0_split
I1023 10:51:07.000794    11 net.cpp:86] Creating Layer ip2_ip2_0_split
I1023 10:51:07.000797    11 net.cpp:408] ip2_ip2_0_split <- ip2
I1023 10:51:07.000800    11 net.cpp:382] ip2_ip2_0_split -> ip2_ip2_0_split_0
I1023 10:51:07.000809    11 net.cpp:382] ip2_ip2_0_split -> ip2_ip2_0_split_1
I1023 10:51:07.000816    11 net.cpp:382] ip2_ip2_0_split -> ip2_ip2_0_split_2
I1023 10:51:07.000821    11 net.cpp:124] Setting up ip2_ip2_0_split
I1023 10:51:07.000825    11 net.cpp:131] Top shape: 100 2 (200)
I1023 10:51:07.000828    11 net.cpp:131] Top shape: 100 2 (200)
I1023 10:51:07.000830    11 net.cpp:131] Top shape: 100 2 (200)
I1023 10:51:07.000831    11 net.cpp:139] Memory required for data: 540241600
I1023 10:51:07.000834    11 layer_factory.hpp:77] Creating layer accuracy
I1023 10:51:07.000840    11 net.cpp:86] Creating Layer accuracy
I1023 10:51:07.000844    11 net.cpp:408] accuracy <- ip2_ip2_0_split_0
I1023 10:51:07.000849    11 net.cpp:408] accuracy <- label_data_1_split_0
I1023 10:51:07.000856    11 net.cpp:382] accuracy -> accuracy
…
